{"format": "torch", "nodes": [{"name": "model", "id": 46922188814032, "class_name": "Diffusion(\n  (net): UNet1d(\n    (to_in): Sequential(\n      (0): Rearrange('b c (l p) -> b (c p) l', p=16)\n      (1): CrossEmbed1d(\n        (convs): ModuleList(\n          (0): Conv1d(16, 64, kernel_size=(1,), stride=(1,))\n          (1): Conv1d(16, 32, kernel_size=(3,), stride=(1,), padding=(1,))\n          (2): Conv1d(16, 32, kernel_size=(7,), stride=(1,), padding=(3,))\n        )\n      )\n    )\n    (to_time): Sequential(\n      (0): Sequential(\n        (0): LearnedPositionalEmbedding()\n        (1): Linear(in_features=129, out_features=512, bias=True)\n      )\n      (1): SiLU()\n      (2): Linear(in_features=512, out_features=512, bias=True)\n    )\n    (downsamples): ModuleList(\n      (0): DownsampleBlock1d(\n        (downsample): Conv1d(128, 256, kernel_size=(9,), stride=(4,), padding=(4,), groups=32)\n        (blocks): ModuleList(\n          (0): ResnetBlock1d(\n            (to_time_embedding): Sequential(\n              (0): SiLU()\n              (1): Linear(in_features=512, out_features=512, bias=True)\n            )\n            (block1): ConvBlock1d(\n              (groupnorm): GroupNorm(8, 256, eps=1e-05, affine=True)\n              (activation): SiLU()\n              (project): Conv1d(256, 256, kernel_size=(3,), stride=(1,), padding=(1,))\n            )\n            (block2): ConvBlock1d(\n              (groupnorm): GroupNorm(8, 256, eps=1e-05, affine=True)\n              (activation): SiLU()\n              (project): Conv1d(256, 256, kernel_size=(3,), stride=(1,), padding=(1,))\n            )\n            (to_out): Identity()\n          )\n          (1): ResnetBlock1d(\n            (to_time_embedding): Sequential(\n              (0): SiLU()\n              (1): Linear(in_features=512, out_features=512, bias=True)\n            )\n            (block1): ConvBlock1d(\n              (groupnorm): GroupNorm(8, 256, eps=1e-05, affine=True)\n              (activation): SiLU()\n              (project): Conv1d(256, 256, kernel_size=(3,), stride=(1,), padding=(1,))\n            )\n            (block2): ConvBlock1d(\n              (groupnorm): GroupNorm(8, 256, eps=1e-05, affine=True)\n              (activation): SiLU()\n              (project): Conv1d(256, 256, kernel_size=(3,), stride=(1,), padding=(1,))\n            )\n            (to_out): Identity()\n          )\n        )\n      )\n      (1): DownsampleBlock1d(\n        (downsample): Conv1d(256, 512, kernel_size=(9,), stride=(4,), padding=(4,), groups=64)\n        (blocks): ModuleList(\n          (0): ResnetBlock1d(\n            (to_time_embedding): Sequential(\n              (0): SiLU()\n              (1): Linear(in_features=512, out_features=1024, bias=True)\n            )\n            (block1): ConvBlock1d(\n              (groupnorm): GroupNorm(8, 512, eps=1e-05, affine=True)\n              (activation): SiLU()\n              (project): Conv1d(512, 512, kernel_size=(3,), stride=(1,), padding=(1,))\n            )\n            (block2): ConvBlock1d(\n              (groupnorm): GroupNorm(8, 512, eps=1e-05, affine=True)\n              (activation): SiLU()\n              (project): Conv1d(512, 512, kernel_size=(3,), stride=(1,), padding=(1,))\n            )\n            (to_out): Identity()\n          )\n          (1): ResnetBlock1d(\n            (to_time_embedding): Sequential(\n              (0): SiLU()\n              (1): Linear(in_features=512, out_features=1024, bias=True)\n            )\n            (block1): ConvBlock1d(\n              (groupnorm): GroupNorm(8, 512, eps=1e-05, affine=True)\n              (activation): SiLU()\n              (project): Conv1d(512, 512, kernel_size=(3,), stride=(1,), padding=(1,))\n            )\n            (block2): ConvBlock1d(\n              (groupnorm): GroupNorm(8, 512, eps=1e-05, affine=True)\n              (activation): SiLU()\n              (project): Conv1d(512, 512, kernel_size=(3,), stride=(1,), padding=(1,))\n            )\n            (to_out): Identity()\n          )\n        )\n      )\n      (2): DownsampleBlock1d(\n        (downsample): Conv1d(512, 512, kernel_size=(9,), stride=(4,), padding=(4,), groups=128)\n        (blocks): ModuleList(\n          (0): ResnetBlock1d(\n            (to_time_embedding): Sequential(\n              (0): SiLU()\n              (1): Linear(in_features=512, out_features=1024, bias=True)\n            )\n            (block1): ConvBlock1d(\n              (groupnorm): GroupNorm(8, 512, eps=1e-05, affine=True)\n              (activation): SiLU()\n              (project): Conv1d(512, 512, kernel_size=(3,), stride=(1,), padding=(1,))\n            )\n            (block2): ConvBlock1d(\n              (groupnorm): GroupNorm(8, 512, eps=1e-05, affine=True)\n              (activation): SiLU()\n              (project): Conv1d(512, 512, kernel_size=(3,), stride=(1,), padding=(1,))\n            )\n            (to_out): Identity()\n          )\n          (1): ResnetBlock1d(\n            (to_time_embedding): Sequential(\n              (0): SiLU()\n              (1): Linear(in_features=512, out_features=1024, bias=True)\n            )\n            (block1): ConvBlock1d(\n              (groupnorm): GroupNorm(8, 512, eps=1e-05, affine=True)\n              (activation): SiLU()\n              (project): Conv1d(512, 512, kernel_size=(3,), stride=(1,), padding=(1,))\n            )\n            (block2): ConvBlock1d(\n              (groupnorm): GroupNorm(8, 512, eps=1e-05, affine=True)\n              (activation): SiLU()\n              (project): Conv1d(512, 512, kernel_size=(3,), stride=(1,), padding=(1,))\n            )\n            (to_out): Identity()\n          )\n        )\n      )\n      (3): DownsampleBlock1d(\n        (downsample): Conv1d(512, 512, kernel_size=(5,), stride=(2,), padding=(2,), groups=128)\n        (blocks): ModuleList(\n          (0): ResnetBlock1d(\n            (to_time_embedding): Sequential(\n              (0): SiLU()\n              (1): Linear(in_features=512, out_features=1024, bias=True)\n            )\n            (block1): ConvBlock1d(\n              (groupnorm): GroupNorm(8, 512, eps=1e-05, affine=True)\n              (activation): SiLU()\n              (project): Conv1d(512, 512, kernel_size=(3,), stride=(1,), padding=(1,))\n            )\n            (block2): ConvBlock1d(\n              (groupnorm): GroupNorm(8, 512, eps=1e-05, affine=True)\n              (activation): SiLU()\n              (project): Conv1d(512, 512, kernel_size=(3,), stride=(1,), padding=(1,))\n            )\n            (to_out): Identity()\n          )\n          (1): ResnetBlock1d(\n            (to_time_embedding): Sequential(\n              (0): SiLU()\n              (1): Linear(in_features=512, out_features=1024, bias=True)\n            )\n            (block1): ConvBlock1d(\n              (groupnorm): GroupNorm(8, 512, eps=1e-05, affine=True)\n              (activation): SiLU()\n              (project): Conv1d(512, 512, kernel_size=(3,), stride=(1,), padding=(1,))\n            )\n            (block2): ConvBlock1d(\n              (groupnorm): GroupNorm(8, 512, eps=1e-05, affine=True)\n              (activation): SiLU()\n              (project): Conv1d(512, 512, kernel_size=(3,), stride=(1,), padding=(1,))\n            )\n            (to_out): Identity()\n          )\n        )\n        (transformer): TransformerBlock1d(\n          (attention): EinopsToAndFrom(\n            (fn): Attention(\n              (norm): LayerNorm()\n              (to_q): Linear(in_features=512, out_features=512, bias=False)\n              (to_kv): Linear(in_features=512, out_features=1024, bias=False)\n              (attention): AttentionBase(\n                (insert_null_tokens): InsertNullTokens()\n                (to_out): Sequential(\n                  (0): Linear(in_features=512, out_features=512, bias=False)\n                  (1): LayerNorm()\n                )\n              )\n            )\n          )\n          (feed_forward): Sequential(\n            (0): LayerNorm1d()\n            (1): Conv1d(512, 1024, kernel_size=(1,), stride=(1,), bias=False)\n            (2): GELU(approximate=none)\n            (3): LayerNorm1d()\n            (4): Conv1d(1024, 512, kernel_size=(1,), stride=(1,), bias=False)\n          )\n        )\n      )\n      (4): DownsampleBlock1d(\n        (downsample): Conv1d(512, 512, kernel_size=(5,), stride=(2,), padding=(2,), groups=128)\n        (blocks): ModuleList(\n          (0): ResnetBlock1d(\n            (to_time_embedding): Sequential(\n              (0): SiLU()\n              (1): Linear(in_features=512, out_features=1024, bias=True)\n            )\n            (block1): ConvBlock1d(\n              (groupnorm): GroupNorm(8, 512, eps=1e-05, affine=True)\n              (activation): SiLU()\n              (project): Conv1d(512, 512, kernel_size=(3,), stride=(1,), padding=(1,))\n            )\n            (block2): ConvBlock1d(\n              (groupnorm): GroupNorm(8, 512, eps=1e-05, affine=True)\n              (activation): SiLU()\n              (project): Conv1d(512, 512, kernel_size=(3,), stride=(1,), padding=(1,))\n            )\n            (to_out): Identity()\n          )\n          (1): ResnetBlock1d(\n            (to_time_embedding): Sequential(\n              (0): SiLU()\n              (1): Linear(in_features=512, out_features=1024, bias=True)\n            )\n            (block1): ConvBlock1d(\n              (groupnorm): GroupNorm(8, 512, eps=1e-05, affine=True)\n              (activation): SiLU()\n              (project): Conv1d(512, 512, kernel_size=(3,), stride=(1,), padding=(1,))\n            )\n            (block2): ConvBlock1d(\n              (groupnorm): GroupNorm(8, 512, eps=1e-05, affine=True)\n              (activation): SiLU()\n              (project): Conv1d(512, 512, kernel_size=(3,), stride=(1,), padding=(1,))\n            )\n            (to_out): Identity()\n          )\n        )\n        (transformer): TransformerBlock1d(\n          (attention): EinopsToAndFrom(\n            (fn): Attention(\n              (norm): LayerNorm()\n              (to_q): Linear(in_features=512, out_features=512, bias=False)\n              (to_kv): Linear(in_features=512, out_features=1024, bias=False)\n              (attention): AttentionBase(\n                (insert_null_tokens): InsertNullTokens()\n                (to_out): Sequential(\n                  (0): Linear(in_features=512, out_features=512, bias=False)\n                  (1): LayerNorm()\n                )\n              )\n            )\n          )\n          (feed_forward): Sequential(\n            (0): LayerNorm1d()\n            (1): Conv1d(512, 1024, kernel_size=(1,), stride=(1,), bias=False)\n            (2): GELU(approximate=none)\n            (3): LayerNorm1d()\n            (4): Conv1d(1024, 512, kernel_size=(1,), stride=(1,), bias=False)\n          )\n        )\n      )\n      (5): DownsampleBlock1d(\n        (downsample): Conv1d(512, 512, kernel_size=(5,), stride=(2,), padding=(2,), groups=128)\n        (blocks): ModuleList(\n          (0): ResnetBlock1d(\n            (to_time_embedding): Sequential(\n              (0): SiLU()\n              (1): Linear(in_features=512, out_features=1024, bias=True)\n            )\n            (block1): ConvBlock1d(\n              (groupnorm): GroupNorm(8, 512, eps=1e-05, affine=True)\n              (activation): SiLU()\n              (project): Conv1d(512, 512, kernel_size=(3,), stride=(1,), padding=(1,))\n            )\n            (block2): ConvBlock1d(\n              (groupnorm): GroupNorm(8, 512, eps=1e-05, affine=True)\n              (activation): SiLU()\n              (project): Conv1d(512, 512, kernel_size=(3,), stride=(1,), padding=(1,))\n            )\n            (to_out): Identity()\n          )\n          (1): ResnetBlock1d(\n            (to_time_embedding): Sequential(\n              (0): SiLU()\n              (1): Linear(in_features=512, out_features=1024, bias=True)\n            )\n            (block1): ConvBlock1d(\n              (groupnorm): GroupNorm(8, 512, eps=1e-05, affine=True)\n              (activation): SiLU()\n              (project): Conv1d(512, 512, kernel_size=(3,), stride=(1,), padding=(1,))\n            )\n            (block2): ConvBlock1d(\n              (groupnorm): GroupNorm(8, 512, eps=1e-05, affine=True)\n              (activation): SiLU()\n              (project): Conv1d(512, 512, kernel_size=(3,), stride=(1,), padding=(1,))\n            )\n            (to_out): Identity()\n          )\n        )\n        (transformer): TransformerBlock1d(\n          (attention): EinopsToAndFrom(\n            (fn): Attention(\n              (norm): LayerNorm()\n              (to_q): Linear(in_features=512, out_features=512, bias=False)\n              (to_kv): Linear(in_features=512, out_features=1024, bias=False)\n              (attention): AttentionBase(\n                (insert_null_tokens): InsertNullTokens()\n                (to_out): Sequential(\n                  (0): Linear(in_features=512, out_features=512, bias=False)\n                  (1): LayerNorm()\n                )\n              )\n            )\n          )\n          (feed_forward): Sequential(\n            (0): LayerNorm1d()\n            (1): Conv1d(512, 1024, kernel_size=(1,), stride=(1,), bias=False)\n            (2): GELU(approximate=none)\n            (3): LayerNorm1d()\n            (4): Conv1d(1024, 512, kernel_size=(1,), stride=(1,), bias=False)\n          )\n        )\n      )\n    )\n    (bottleneck): BottleneckBlock1d(\n      (pre_block): ResnetBlock1d(\n        (to_time_embedding): Sequential(\n          (0): SiLU()\n          (1): Linear(in_features=512, out_features=1024, bias=True)\n        )\n        (block1): ConvBlock1d(\n          (groupnorm): GroupNorm(8, 512, eps=1e-05, affine=True)\n          (activation): SiLU()\n          (project): Conv1d(512, 512, kernel_size=(3,), stride=(1,), padding=(1,))\n        )\n        (block2): ConvBlock1d(\n          (groupnorm): GroupNorm(8, 512, eps=1e-05, affine=True)\n          (activation): SiLU()\n          (project): Conv1d(512, 512, kernel_size=(3,), stride=(1,), padding=(1,))\n        )\n        (to_out): Identity()\n      )\n      (attention): EinopsToAndFrom(\n        (fn): Attention(\n          (norm): LayerNorm()\n          (to_q): Linear(in_features=512, out_features=512, bias=False)\n          (to_kv): Linear(in_features=512, out_features=1024, bias=False)\n          (attention): AttentionBase(\n            (insert_null_tokens): InsertNullTokens()\n            (to_out): Sequential(\n              (0): Linear(in_features=512, out_features=512, bias=False)\n              (1): LayerNorm()\n            )\n          )\n        )\n      )\n      (post_block): ResnetBlock1d(\n        (to_time_embedding): Sequential(\n          (0): SiLU()\n          (1): Linear(in_features=512, out_features=1024, bias=True)\n        )\n        (block1): ConvBlock1d(\n          (groupnorm): GroupNorm(8, 512, eps=1e-05, affine=True)\n          (activation): SiLU()\n          (project): Conv1d(512, 512, kernel_size=(3,), stride=(1,), padding=(1,))\n        )\n        (block2): ConvBlock1d(\n          (groupnorm): GroupNorm(8, 512, eps=1e-05, affine=True)\n          (activation): SiLU()\n          (project): Conv1d(512, 512, kernel_size=(3,), stride=(1,), padding=(1,))\n        )\n        (to_out): Identity()\n      )\n    )\n    (upsamples): ModuleList(\n      (0): UpsampleBlock1d(\n        (blocks): ModuleList(\n          (0): ResnetBlock1d(\n            (to_time_embedding): Sequential(\n              (0): SiLU()\n              (1): Linear(in_features=512, out_features=1024, bias=True)\n            )\n            (block1): ConvBlock1d(\n              (groupnorm): GroupNorm(8, 1024, eps=1e-05, affine=True)\n              (activation): SiLU()\n              (project): Conv1d(1024, 512, kernel_size=(3,), stride=(1,), padding=(1,))\n            )\n            (block2): ConvBlock1d(\n              (groupnorm): GroupNorm(8, 512, eps=1e-05, affine=True)\n              (activation): SiLU()\n              (project): Conv1d(512, 512, kernel_size=(3,), stride=(1,), padding=(1,))\n            )\n            (to_out): Conv1d(1024, 512, kernel_size=(1,), stride=(1,))\n          )\n          (1): ResnetBlock1d(\n            (to_time_embedding): Sequential(\n              (0): SiLU()\n              (1): Linear(in_features=512, out_features=1024, bias=True)\n            )\n            (block1): ConvBlock1d(\n              (groupnorm): GroupNorm(8, 1024, eps=1e-05, affine=True)\n              (activation): SiLU()\n              (project): Conv1d(1024, 512, kernel_size=(3,), stride=(1,), padding=(1,))\n            )\n            (block2): ConvBlock1d(\n              (groupnorm): GroupNorm(8, 512, eps=1e-05, affine=True)\n              (activation): SiLU()\n              (project): Conv1d(512, 512, kernel_size=(3,), stride=(1,), padding=(1,))\n            )\n            (to_out): Conv1d(1024, 512, kernel_size=(1,), stride=(1,))\n          )\n          (2): ResnetBlock1d(\n            (to_time_embedding): Sequential(\n              (0): SiLU()\n              (1): Linear(in_features=512, out_features=1024, bias=True)\n            )\n            (block1): ConvBlock1d(\n              (groupnorm): GroupNorm(8, 1024, eps=1e-05, affine=True)\n              (activation): SiLU()\n              (project): Conv1d(1024, 512, kernel_size=(3,), stride=(1,), padding=(1,))\n            )\n            (block2): ConvBlock1d(\n              (groupnorm): GroupNorm(8, 512, eps=1e-05, affine=True)\n              (activation): SiLU()\n              (project): Conv1d(512, 512, kernel_size=(3,), stride=(1,), padding=(1,))\n            )\n            (to_out): Conv1d(1024, 512, kernel_size=(1,), stride=(1,))\n          )\n        )\n        (transformer): TransformerBlock1d(\n          (attention): EinopsToAndFrom(\n            (fn): Attention(\n              (norm): LayerNorm()\n              (to_q): Linear(in_features=512, out_features=512, bias=False)\n              (to_kv): Linear(in_features=512, out_features=1024, bias=False)\n              (attention): AttentionBase(\n                (insert_null_tokens): InsertNullTokens()\n                (to_out): Sequential(\n                  (0): Linear(in_features=512, out_features=512, bias=False)\n                  (1): LayerNorm()\n                )\n              )\n            )\n          )\n          (feed_forward): Sequential(\n            (0): LayerNorm1d()\n            (1): Conv1d(512, 1024, kernel_size=(1,), stride=(1,), bias=False)\n            (2): GELU(approximate=none)\n            (3): LayerNorm1d()\n            (4): Conv1d(1024, 512, kernel_size=(1,), stride=(1,), bias=False)\n          )\n        )\n        (upsample): ConvTranspose1d(512, 512, kernel_size=(4,), stride=(2,), padding=(1,))\n      )\n      (1): UpsampleBlock1d(\n        (blocks): ModuleList(\n          (0): ResnetBlock1d(\n            (to_time_embedding): Sequential(\n              (0): SiLU()\n              (1): Linear(in_features=512, out_features=1024, bias=True)\n            )\n            (block1): ConvBlock1d(\n              (groupnorm): GroupNorm(8, 1024, eps=1e-05, affine=True)\n              (activation): SiLU()\n              (project): Conv1d(1024, 512, kernel_size=(3,), stride=(1,), padding=(1,))\n            )\n            (block2): ConvBlock1d(\n              (groupnorm): GroupNorm(8, 512, eps=1e-05, affine=True)\n              (activation): SiLU()\n              (project): Conv1d(512, 512, kernel_size=(3,), stride=(1,), padding=(1,))\n            )\n            (to_out): Conv1d(1024, 512, kernel_size=(1,), stride=(1,))\n          )\n          (1): ResnetBlock1d(\n            (to_time_embedding): Sequential(\n              (0): SiLU()\n              (1): Linear(in_features=512, out_features=1024, bias=True)\n            )\n            (block1): ConvBlock1d(\n              (groupnorm): GroupNorm(8, 1024, eps=1e-05, affine=True)\n              (activation): SiLU()\n              (project): Conv1d(1024, 512, kernel_size=(3,), stride=(1,), padding=(1,))\n            )\n            (block2): ConvBlock1d(\n              (groupnorm): GroupNorm(8, 512, eps=1e-05, affine=True)\n              (activation): SiLU()\n              (project): Conv1d(512, 512, kernel_size=(3,), stride=(1,), padding=(1,))\n            )\n            (to_out): Conv1d(1024, 512, kernel_size=(1,), stride=(1,))\n          )\n          (2): ResnetBlock1d(\n            (to_time_embedding): Sequential(\n              (0): SiLU()\n              (1): Linear(in_features=512, out_features=1024, bias=True)\n            )\n            (block1): ConvBlock1d(\n              (groupnorm): GroupNorm(8, 1024, eps=1e-05, affine=True)\n              (activation): SiLU()\n              (project): Conv1d(1024, 512, kernel_size=(3,), stride=(1,), padding=(1,))\n            )\n            (block2): ConvBlock1d(\n              (groupnorm): GroupNorm(8, 512, eps=1e-05, affine=True)\n              (activation): SiLU()\n              (project): Conv1d(512, 512, kernel_size=(3,), stride=(1,), padding=(1,))\n            )\n            (to_out): Conv1d(1024, 512, kernel_size=(1,), stride=(1,))\n          )\n        )\n        (transformer): TransformerBlock1d(\n          (attention): EinopsToAndFrom(\n            (fn): Attention(\n              (norm): LayerNorm()\n              (to_q): Linear(in_features=512, out_features=512, bias=False)\n              (to_kv): Linear(in_features=512, out_features=1024, bias=False)\n              (attention): AttentionBase(\n                (insert_null_tokens): InsertNullTokens()\n                (to_out): Sequential(\n                  (0): Linear(in_features=512, out_features=512, bias=False)\n                  (1): LayerNorm()\n                )\n              )\n            )\n          )\n          (feed_forward): Sequential(\n            (0): LayerNorm1d()\n            (1): Conv1d(512, 1024, kernel_size=(1,), stride=(1,), bias=False)\n            (2): GELU(approximate=none)\n            (3): LayerNorm1d()\n            (4): Conv1d(1024, 512, kernel_size=(1,), stride=(1,), bias=False)\n          )\n        )\n        (upsample): ConvTranspose1d(512, 512, kernel_size=(4,), stride=(2,), padding=(1,))\n      )\n      (2): UpsampleBlock1d(\n        (blocks): ModuleList(\n          (0): ResnetBlock1d(\n            (to_time_embedding): Sequential(\n              (0): SiLU()\n              (1): Linear(in_features=512, out_features=1024, bias=True)\n            )\n            (block1): ConvBlock1d(\n              (groupnorm): GroupNorm(8, 1024, eps=1e-05, affine=True)\n              (activation): SiLU()\n              (project): Conv1d(1024, 512, kernel_size=(3,), stride=(1,), padding=(1,))\n            )\n            (block2): ConvBlock1d(\n              (groupnorm): GroupNorm(8, 512, eps=1e-05, affine=True)\n              (activation): SiLU()\n              (project): Conv1d(512, 512, kernel_size=(3,), stride=(1,), padding=(1,))\n            )\n            (to_out): Conv1d(1024, 512, kernel_size=(1,), stride=(1,))\n          )\n          (1): ResnetBlock1d(\n            (to_time_embedding): Sequential(\n              (0): SiLU()\n              (1): Linear(in_features=512, out_features=1024, bias=True)\n            )\n            (block1): ConvBlock1d(\n              (groupnorm): GroupNorm(8, 1024, eps=1e-05, affine=True)\n              (activation): SiLU()\n              (project): Conv1d(1024, 512, kernel_size=(3,), stride=(1,), padding=(1,))\n            )\n            (block2): ConvBlock1d(\n              (groupnorm): GroupNorm(8, 512, eps=1e-05, affine=True)\n              (activation): SiLU()\n              (project): Conv1d(512, 512, kernel_size=(3,), stride=(1,), padding=(1,))\n            )\n            (to_out): Conv1d(1024, 512, kernel_size=(1,), stride=(1,))\n          )\n          (2): ResnetBlock1d(\n            (to_time_embedding): Sequential(\n              (0): SiLU()\n              (1): Linear(in_features=512, out_features=1024, bias=True)\n            )\n            (block1): ConvBlock1d(\n              (groupnorm): GroupNorm(8, 1024, eps=1e-05, affine=True)\n              (activation): SiLU()\n              (project): Conv1d(1024, 512, kernel_size=(3,), stride=(1,), padding=(1,))\n            )\n            (block2): ConvBlock1d(\n              (groupnorm): GroupNorm(8, 512, eps=1e-05, affine=True)\n              (activation): SiLU()\n              (project): Conv1d(512, 512, kernel_size=(3,), stride=(1,), padding=(1,))\n            )\n            (to_out): Conv1d(1024, 512, kernel_size=(1,), stride=(1,))\n          )\n        )\n        (transformer): TransformerBlock1d(\n          (attention): EinopsToAndFrom(\n            (fn): Attention(\n              (norm): LayerNorm()\n              (to_q): Linear(in_features=512, out_features=512, bias=False)\n              (to_kv): Linear(in_features=512, out_features=1024, bias=False)\n              (attention): AttentionBase(\n                (insert_null_tokens): InsertNullTokens()\n                (to_out): Sequential(\n                  (0): Linear(in_features=512, out_features=512, bias=False)\n                  (1): LayerNorm()\n                )\n              )\n            )\n          )\n          (feed_forward): Sequential(\n            (0): LayerNorm1d()\n            (1): Conv1d(512, 1024, kernel_size=(1,), stride=(1,), bias=False)\n            (2): GELU(approximate=none)\n            (3): LayerNorm1d()\n            (4): Conv1d(1024, 512, kernel_size=(1,), stride=(1,), bias=False)\n          )\n        )\n        (upsample): ConvTranspose1d(512, 512, kernel_size=(4,), stride=(2,), padding=(1,))\n      )\n      (3): UpsampleBlock1d(\n        (blocks): ModuleList(\n          (0): ResnetBlock1d(\n            (to_time_embedding): Sequential(\n              (0): SiLU()\n              (1): Linear(in_features=512, out_features=1024, bias=True)\n            )\n            (block1): ConvBlock1d(\n              (groupnorm): GroupNorm(8, 1024, eps=1e-05, affine=True)\n              (activation): SiLU()\n              (project): Conv1d(1024, 512, kernel_size=(3,), stride=(1,), padding=(1,))\n            )\n            (block2): ConvBlock1d(\n              (groupnorm): GroupNorm(8, 512, eps=1e-05, affine=True)\n              (activation): SiLU()\n              (project): Conv1d(512, 512, kernel_size=(3,), stride=(1,), padding=(1,))\n            )\n            (to_out): Conv1d(1024, 512, kernel_size=(1,), stride=(1,))\n          )\n          (1): ResnetBlock1d(\n            (to_time_embedding): Sequential(\n              (0): SiLU()\n              (1): Linear(in_features=512, out_features=1024, bias=True)\n            )\n            (block1): ConvBlock1d(\n              (groupnorm): GroupNorm(8, 1024, eps=1e-05, affine=True)\n              (activation): SiLU()\n              (project): Conv1d(1024, 512, kernel_size=(3,), stride=(1,), padding=(1,))\n            )\n            (block2): ConvBlock1d(\n              (groupnorm): GroupNorm(8, 512, eps=1e-05, affine=True)\n              (activation): SiLU()\n              (project): Conv1d(512, 512, kernel_size=(3,), stride=(1,), padding=(1,))\n            )\n            (to_out): Conv1d(1024, 512, kernel_size=(1,), stride=(1,))\n          )\n        )\n        (upsample): ConvTranspose1d(512, 512, kernel_size=(8,), stride=(4,), padding=(2,))\n      )\n      (4): UpsampleBlock1d(\n        (blocks): ModuleList(\n          (0): ResnetBlock1d(\n            (to_time_embedding): Sequential(\n              (0): SiLU()\n              (1): Linear(in_features=512, out_features=1024, bias=True)\n            )\n            (block1): ConvBlock1d(\n              (groupnorm): GroupNorm(8, 1024, eps=1e-05, affine=True)\n              (activation): SiLU()\n              (project): Conv1d(1024, 512, kernel_size=(3,), stride=(1,), padding=(1,))\n            )\n            (block2): ConvBlock1d(\n              (groupnorm): GroupNorm(8, 512, eps=1e-05, affine=True)\n              (activation): SiLU()\n              (project): Conv1d(512, 512, kernel_size=(3,), stride=(1,), padding=(1,))\n            )\n            (to_out): Conv1d(1024, 512, kernel_size=(1,), stride=(1,))\n          )\n          (1): ResnetBlock1d(\n            (to_time_embedding): Sequential(\n              (0): SiLU()\n              (1): Linear(in_features=512, out_features=1024, bias=True)\n            )\n            (block1): ConvBlock1d(\n              (groupnorm): GroupNorm(8, 1024, eps=1e-05, affine=True)\n              (activation): SiLU()\n              (project): Conv1d(1024, 512, kernel_size=(3,), stride=(1,), padding=(1,))\n            )\n            (block2): ConvBlock1d(\n              (groupnorm): GroupNorm(8, 512, eps=1e-05, affine=True)\n              (activation): SiLU()\n              (project): Conv1d(512, 512, kernel_size=(3,), stride=(1,), padding=(1,))\n            )\n            (to_out): Conv1d(1024, 512, kernel_size=(1,), stride=(1,))\n          )\n        )\n        (upsample): ConvTranspose1d(512, 256, kernel_size=(8,), stride=(4,), padding=(2,))\n      )\n      (5): UpsampleBlock1d(\n        (blocks): ModuleList(\n          (0): ResnetBlock1d(\n            (to_time_embedding): Sequential(\n              (0): SiLU()\n              (1): Linear(in_features=512, out_features=512, bias=True)\n            )\n            (block1): ConvBlock1d(\n              (groupnorm): GroupNorm(8, 512, eps=1e-05, affine=True)\n              (activation): SiLU()\n              (project): Conv1d(512, 256, kernel_size=(3,), stride=(1,), padding=(1,))\n            )\n            (block2): ConvBlock1d(\n              (groupnorm): GroupNorm(8, 256, eps=1e-05, affine=True)\n              (activation): SiLU()\n              (project): Conv1d(256, 256, kernel_size=(3,), stride=(1,), padding=(1,))\n            )\n            (to_out): Conv1d(512, 256, kernel_size=(1,), stride=(1,))\n          )\n          (1): ResnetBlock1d(\n            (to_time_embedding): Sequential(\n              (0): SiLU()\n              (1): Linear(in_features=512, out_features=512, bias=True)\n            )\n            (block1): ConvBlock1d(\n              (groupnorm): GroupNorm(8, 512, eps=1e-05, affine=True)\n              (activation): SiLU()\n              (project): Conv1d(512, 256, kernel_size=(3,), stride=(1,), padding=(1,))\n            )\n            (block2): ConvBlock1d(\n              (groupnorm): GroupNorm(8, 256, eps=1e-05, affine=True)\n              (activation): SiLU()\n              (project): Conv1d(256, 256, kernel_size=(3,), stride=(1,), padding=(1,))\n            )\n            (to_out): Conv1d(512, 256, kernel_size=(1,), stride=(1,))\n          )\n        )\n        (upsample): ConvTranspose1d(256, 128, kernel_size=(8,), stride=(4,), padding=(2,))\n      )\n    )\n    (to_out): Sequential(\n      (0): ResnetBlock1d(\n        (to_time_embedding): Sequential(\n          (0): SiLU()\n          (1): Linear(in_features=512, out_features=256, bias=True)\n        )\n        (block1): ConvBlock1d(\n          (groupnorm): GroupNorm(8, 128, eps=1e-05, affine=True)\n          (activation): SiLU()\n          (project): Conv1d(128, 128, kernel_size=(3,), stride=(1,), padding=(1,))\n        )\n        (block2): ConvBlock1d(\n          (groupnorm): GroupNorm(8, 128, eps=1e-05, affine=True)\n          (activation): SiLU()\n          (project): Conv1d(128, 128, kernel_size=(3,), stride=(1,), padding=(1,))\n        )\n        (to_out): Identity()\n      )\n      (1): Conv1d(128, 16, kernel_size=(1,), stride=(1,))\n      (2): Rearrange('b (c p) l -> b c (l p)', p=16)\n    )\n  )\n)", "parameters": [["net.to_in.1.convs.0.weight", [64, 16, 1]], ["net.to_in.1.convs.0.bias", [64]], ["net.to_in.1.convs.1.weight", [32, 16, 3]], ["net.to_in.1.convs.1.bias", [32]], ["net.to_in.1.convs.2.weight", [32, 16, 7]], ["net.to_in.1.convs.2.bias", [32]], ["net.to_time.0.0.weights", [64
…
